humble_ws/src/humanoid_locomotion_policy_example/h1_fullbody_controller/policy/h1_policy.pt (torch, 188966 bytes, 8 tensors)

weight f4 [128, 69]
-0.27727783 0.13140278 0.027515225 -0.13568877 -0.31207374 0.006239812 -0.96995497 -0.11434646
0.17868458 0.18934788 -0.008982993 0.15947416 0.2880205 0.23003452 0.034324016 -0.27010038
-0.05293818 0.58195966 0.40785503 -0.7739431 -0.28615966 -0.5505353 -0.8014647 -0.41013184
0.44301897 0.22122586 0.2765103 1.3693526 -0.073525235 -0.151782 -0.018841442 0.0013682632
0.09171001 0.045836262 -0.033219233 -0.0018934764 0.082203805 -0.043812014 0.02277631 -0.06880452
0.07268846 0.10129357 -0.005403754 0.014172735 0.12726411 0.10036535 0.04475683 0.1811779
-0.09060004 0.071672715 0.024243318 0.13203168 0.033634223 0.13723189 -0.0055540456 0.005938161
0.06422466 0.111531086 -0.11231674 -0.105437435 0.03260461 -0.14663514 -0.065346844 -0.12408433
-0.038037434 -0.030912183 -0.102947675 0.07800407 -0.05641356 -0.584502 -0.3868551 0.21821168
0.0026934394 -0.54428923 0.031510375 -1.548552 0.073090024 0.10980188 0.4346356 0.012536342
0.010536381 -0.15839696 -0.14682984 0.43288267 0.09767789 -0.143458 0.10648765 -0.2873109
-0.029849937 0.7878529 -0.5900204 0.04268349 0.19875918 0.35683116 0.16741116 0.08829517
0.8680665 0.19693647 0.26776543 -0.5987487 -0.013015575 0.047183927 -0.009380663 -0.07989352
0.07748798 0.078265734 0.024429915 -0.045127116 -0.10373996 -0.042992633 0.11082128 0.027985865
-0.07389999 -0.06926188 -0.060062256 -0.0799923 0.10883485 0.020601435 -0.038160156 -0.07071312
-0.26940137 0.058688328 -0.051154394 -0.20306802 -0.059937686 -0.024128594 0.018085677 -0.07642782
0.15913706 -0.10729061 -0.10740284 0.084414385 0.042338002 0.20015204 0.19538549 0.04003338
-0.15237892 0.14783567 -0.17745201 0.9036071 0.013851317 -0.24904175 -0.26182616 0.20580518
-0.6719442 0.30979347 -0.049307857 -0.05797729 0.06644461 0.22527012 -0.2715839 0.32378173
0.102413945 -0.46488518 -0.14665824 -0.32656258 1.1169178 -0.05058144 -0.010405207 -0.16531998
0.11664542 0.07701736 -0.36017448 -0.3734502 -0.13264062 -0.047124535 0.3810275 0.3856352
0.07395511 0.0144311795 0.0389658 0.099646755 0.1279718 -0.07918706 0.029601436 -0.07222838
0.0050197616 0.054839678 -0.095657274 0.061913118 0.007901941 -0.10686886 0.024263553 0.06869532
0.11672266 -0.03719729 -0.014910829 0.015972007 -0.035579357 0.03967875 -0.10565091 -0.49940544
-0.029113557 0.2143266 -0.11951399 -0.30187413 0.16304937 -2.3879391e-05 0.03325512 -0.28768045
0.12664916 -0.021647885 -0.08280294 -0.0645241 -0.0106230015 0.040108677 0.015625129 -0.28959084
-0.45645016 -0.12312683 0.11842476 -0.15332016 -0.06776125 -0.5321746 -0.49869815 0.2036864
0.53448355 -0.011616264 0.20744216 -0.2825005 -0.8143544 -0.5401642 -0.19373709 -0.1020253
0.6310457 0.20770162 -0.2538952 0.64493793 0.07801386 -0.19477007 -0.0468444 0.44094005
-0.27016348 -0.6362658 0.39819852 -0.5064371 0.60205066 0.26536837 -0.011101268 0.07074589
0.0059360894 0.11440186 0.0001634577 0.06827988 0.060176104 0.01950751 0.053861275 -0.0042234557
0.15619081 -0.00019510483 0.054234006 -0.036345184 0.0261842 0.06180943 -0.07744024 -0.038809013
00000000: 5cf7 8dbe 738e 063e 9c67 e13c fff1 0abe
00000010: 21c8 9fbe 5677 cc3b f84e 78bf 7a2e eabd
00000020: 17f9 363e 69e4 413e 672d 13bc 324d 233e
00000030: 6c77 933e 2b8e 6b3e 5797 0c3d 994a 8abe
00000040: b4d5 58bd 4ffb 143f 60d2 d03e 2321 46bf
00000050: 8583 92be e2ef 0cbf ca2c 4dbf cdfc d1be
00000060: 62d3 e23e 0889 623e c292 8d3e f246 af3f
00000070: 6694 96bd be6c 1bbe 5e59 9abc 4b57 b33a
00000080: 75d2 bb3d cebe 3b3d e410 08bd 862e f8ba
00000090: 785a a83d 3a74 33bd 6295 ba3c 62e9 8cbd
000000a0: b0dd 943d 0173 cf3d f911 b1bb c234 683c
000000b0: 8651 023e 598c cd3d f052 373d b386 393e
000000c0: 848c b9bd 25c9 923d ec99 c63c 5033 073e
000000d0: 0ac4 093d 8486 0c3e b6fe b5bb e894 c23b
000000e0: 3888 833d 696a e43d 5206 e6bd 95ef d7bd
000000f0: 698c 053d 8627 16be 91d4 85bd ed1f febd
00000100: 24cd 1bbd 8c3b fdbc 3bd6 d2bd 99c0 9f3d
00000110: e811 67bd eca1 15bf df11 c6be e272 5f3e
00000120: 6a84 303b 8a56 0bbf 0611 013d f436 c6bf
00000130: 39b0 953d cfdf e03d 8f88 de3e 3b65 4d3c
00000140: c9a0 2c3c d032 22be 905a 16be cca2 dd3e
00000150: 580b c83d a7e6 12be 3216 da3d 6a1a 93be
00000160: db87 f4bc bab0 493f 940b 17bf e2d4 2e3d
00000170: 8787 4b3e 93b2 b63e d56d 2b3e 19d4 b43d
00000180: 9b39 5e3f b7a9 493e 8d18 893e 9847 19bf
00000190: 473f 55bc ef43 413d 5ab1 19bc 379f a3bd
000001a0: 05b2 9e3d c949 a03d 3f21 c83c 36d7 38bd
000001b0: 9e75 d4bd 0b19 30bd 44f6 e23d 9d42 e53c
000001c0: e158 97bd 2cd9 8dbd d703 76bd 01d3 a3bd
000001d0: cee4 de3d 57c4 a83c d34d 1cbd 0ad2 90bd
000001e0: faee 89be 2c63 703d 4587 51bd 10f1 4fbe
000001f0: 3881 75bd 54a9 c5bc 6a28 943c 3086 9cbd
00000200: d3f4 223e 2ebb dbbd 05f6 dbbd 73e1 ac3d
00000210: 9d6a 2d3d a8f4 4c3e 2213 483e 0bfa 233d
00000220: 3809 1cbe 3c62 173e fbb5 35be cb52 673f
00000230: a2f0 623c cd04 7fbe 140e 86be 98be 523e
00000240: 8904 2cbf 409d 9e3e 09f7 49bd 9879 6dbd
00000250: 1d14 883d 36ad 663e 0c0d 8bbe b8c6 a53e
00000260: 67be d13d 6e05 eebe 942d 16be 3633 a7be
00000270: 2af7 8e3f 7c2e 4fbd 9a7a 2abc a449 29be
00000280: cbe3 ee3d 47bb 9d3d ca68 b8be dd34 bfbe
00000290: f1d2 07be a805 41bd 0916 c33e fa71 c53e
000002a0: c775 973d c170 6c3c 9a9a 1f3d 9913 cc3d
000002b0: 0a0b 033e d32c a2bd b67e f23c 79ec 93bd
000002c0: d07c a43b 929f 603d f6e7 c3bd 9c98 7d3d
000002d0: 2577 013c 10de dabd 5cc4 c63c 22b0 8c3d
000002e0: 4a0c ef3d 305c 18bd 8d4c 74bc bad7 823c
000002f0: a9bb 11bd 2f86 223d 815f d8bd 12b2 ffbe
00000300: 8e7f eebc 6f78 5b3e c0c3 f4bd 3f8f 9abe
00000310: 6af6 263e 9a50 c8b7 8536 083d da4a 93be
00000320: 51b0 013e e856 b1bc 9694 a9bd 3625 84bd
00000330: 190c 2ebc ff48 243d 4500 803c 4045 94be
00000340: d6b3 e9be eb29 fcbd ae88 f23d f6ff 1cbe
00000350: 69c6 8abd 983c 08bf 5d55 ffbe 2b93 503e
00000360: ead3 083f 2452 3ebc b86b 543e e8a3 90be
00000370: 8879 50bf 3348 0abf 0463 46be a4f2 d0bd
00000380: 368c 213f bcaf 543e 8dfe 81be a71a 253f
00000390: bbc5 9f3d ce71 47be eadf 3fbd e5c2 e13e
000003a0: de52 8abe 51e2 22bf ade0 cb3e dda5 01bf
000003b0: fe1f 1a3f 5dde 873e 18e2 35bc 39e3 903d
000003c0: 8783 c23b 864b ea3d d865 2b39 52d6 8b3d
000003d0: 387b 763d 37ce 9f3c a49d 5c3d ea64 8abb
000003e0: 7cf0 1f3e 0e95 4cb9 7a24 5e3d b0de 14bd
000003f0: 3f80 d63c e32b 7d3d fd98 9ebd 33f6 1ebd

bias f4 [128]
-0.036834806 -0.09698492 0.03885573 -0.05193032 0.08055333 -0.1299704 0.069283456 -0.20604967
-0.20097011 -0.03709682 -0.11131981 -0.06923236 -0.07326232 -0.027555052 0.027847342 -0.20743322
0.2875361 -0.076431006 0.09128964 -0.12047925 -0.10085797 -0.27529177 0.13785149 0.067852855
-0.048043348 -0.050978303 -0.04782518 0.116958894 -0.117947884 -0.14875859 0.19232166 0.02774052
0.014608594 -0.019340567 -0.19163604 -0.12341203 0.14474943 -0.20235431 -0.1924659 -0.0023923195
0.09178602 -0.0832603 0.06033145 0.00039977438 0.0535844 0.24948423 -0.12768155 0.11901709
-0.14468798 -0.022857169 0.06230258 -0.05476273 -0.13175644 -0.111382276 -0.09110418 -0.13049614
-0.04709163 0.0025266404 0.082809225 -0.051165733 0.009229468 0.212326 -0.008893901 -0.027694067
0.021186646 -0.0056679267 -0.036562074 -0.06760492 0.07741343 0.06460621 -0.183854 -0.21990882
0.039911617 0.053060032 -0.009356055 -0.26483253 -0.047799677 -0.040243547 -0.17159545 -0.11567527
-0.22372222 -0.019439703 -0.032428246 -0.0139989825 -0.031024504 -0.01217591 0.14927584 0.12134612
0.18742675 -0.24274673 0.03490224 -0.2158803 0.012964685 0.075937025 -0.0653603 -0.017335258
-0.020325257 -0.1446298 0.048749585 -0.11456015 0.0480043 0.0051239664 0.14442542 0.050675374
-0.012237116 0.06491182 -0.25935847 -0.051378243 -0.07049206 -0.0029018472 0.04479707 -0.13537215
-0.19982742 -0.008549661 0.0046784747 0.03527256 0.098780945 0.043209553 0.08450777 -0.12204582
-0.06807816 -0.06508899 0.03362454 0.029452723 -0.07922403 0.071919516 -0.09777564 -0.12224596
00000000: 18e0 16bd 08a0 c6bd 3027 1f3d e3b4 54bd
00000010: 25f9 a43d f616 05be 7ce4 8d3d affe 52be
00000020: 1ccb 4dbe d6f2 17bd a4fb e3bd b2c9 8dbd
00000030: 8e0a 96bd 22bb e1bc 1c20 e43c 6069 54be
00000040: ef37 933e dc87 9cbd 10f6 ba3d d3bd f6bd
00000050: a08e cebd 0bf3 8cbe f128 0d3e 70f6 8a3d
00000060: 1ac9 44bd a0ce 50bd 56e4 43bd 2588 ef3d
00000070: a98e f1bd 2c54 18be f8ef 443e 1640 e33c
00000080: e258 6f3c 1c70 9ebc 3d3c 44be 72bf fcbd
00000090: 3239 143e f835 4fbe c815 45be 76c8 1cbb
000000a0: 4ffa bb3d 6084 aabd 1c1e 773d cf98 d139
000000b0: 517b 5b3d cb78 7f3e f4be 02be 3bbf f33d
000000c0: 1629 14be f53e bbbc fd30 7f3d e24e 60bd
000000d0: 29eb 06be 641c e4bd d494 babd c8a0 05be
000000e0: 27e3 40bd fe95 253b e297 a93d 2993 51bd
000000f0: 3237 173c fd6b 593e b9b7 11bc abde e2bc
00000100: 9e8f ad3c 04ba b9bb 1dc2 15bd 7374 8abd
00000110: ef8a 9e3d 4350 843d 3944 3cbe c72f 61be
00000120: 5d7a 233d 7a55 593d 244a 19bc 2198 87be
00000130: 98c9 43bd 6bd6 24bd b8b6 2fbe 28e7 ecbd
00000140: 7017 65be 0340 9fbc 7bd3 04bd fd5b 65bc
00000150: 1a27 febc 787d 47bc c4db 183e 5184 f83d
00000160: ccec 3f3e 9992 78be a7f5 0e3d ba0f 5dbe
00000170: d569 543c df84 9b3d 9fdb 85bd ac02 8ebc
00000180: 2781 a6bc d619 14be a5ad 473d 839e eabd
00000190: 28a0 443d f2e6 a73b 42e4 133e fb90 4f3d
000001a0: 2f7e 48bc 7df0 843d a2ca 84be fe71 52bd
000001b0: 245e 90bd eb2c 3ebb 227d 373d ff9e 0abe
000001c0: 8f9f 4cbe e113 0cbc e44d 993b f679 103d
000001d0: aa4d ca3d 80fc 303d 6912 ad3d 29f3 f9bd
000001e0: 906c 8bbd 604d 85bd e3b9 093d d646 f13c
000001f0: 3540 a2bd 8a4a 933d 983e c8bd 175c fabd

weight f4 [128, 128]
-0.0934095 -0.014691773 0.037686955 -0.0576977 -0.00036160625 0.00397481 -0.12881759 0.06352938
-0.15181127 -0.021852672 0.069070734 -0.117817745 0.033625826 0.05581403 -0.02812768 0.07482563
-0.1378852 0.120671816 0.05086588 -0.0881465 0.18675388 -0.035416946 0.011873484 -0.04537061
-0.09446486 0.009996853 0.042374097 -0.10964584 0.084114425 0.03295421 -0.019434776 0.10239063
-0.06745568 0.03530404 0.20643777 -0.05980056 -0.022267954 -0.07057595 0.061780788 -0.11297
-0.10329984 0.16520774 -0.010753944 -0.04716112 0.020074653 0.10034348 -0.021055283 0.062759034
0.18503767 0.01832435 0.060010076 -0.1142877 -0.06942708 -0.07110295 0.062540874 0.024964863
0.15160552 0.08493111 0.03822962 0.07552169 0.11503853 0.15113674 -0.09025964 -0.07963892
0.09104838 0.17762807 0.18297139 0.044961147 0.020447107 -0.015279235 0.13144737 -0.055068016
-0.045025434 -0.1770698 0.083346695 -0.16105671 -0.095319696 0.18419969 0.15681237 -0.09663477
0.11227292 -0.004370504 0.018167458 0.2536363 0.16526899 -0.0465637 -0.14198722 -0.077559486
0.065012194 0.032400128 0.009328043 -0.05182865 0.037441004 -0.17503715 -0.036708526 -0.20317957
-0.061133094 0.07555803 -0.044125758 -0.0771848 0.20398547 0.09354196 -0.09266055 -0.13582249
0.051423043 -0.11996466 0.015638456 -0.14854619 -0.07471281 0.10237069 0.080440424 -0.09888168
-0.063501 0.12311901 0.005560455 0.06019984 0.1606506 0.079999655 -0.088310115 0.11738559
-0.013074543 0.05707638 -0.12730342 0.053481285 -0.077334866 0.006580419 -0.0077331746 -0.046467304
0.06278812 0.06654464 -0.066398926 -0.1027234 -0.07876187 0.1448085 0.1061509 -0.010768952
-0.010321407 -0.04832787 0.12417106 -0.04074803 -0.013166381 0.12826675 0.0824719 -0.09065352
-0.05569641 -0.13016132 -0.03912954 0.016959492 0.0034802393 -0.05947995 0.0041882726 0.09030247
0.2001601 0.05455822 -0.027309526 0.042329524 0.035311576 0.060293425 0.02636819 0.06855738
-0.027453346 -0.060843643 0.063458994 -0.076537155 0.08695718 0.006215835 -0.046536036 -0.033539183
-0.11770803 0.25217575 0.13615654 -0.061927468 -0.056888264 -0.18851513 0.020604994 -0.031707805
-0.04412057 -0.0027298585 0.09419574 -0.0041367235 0.09809541 -0.029149005 -0.030768387 0.014898956
0.009350573 -0.089453265 0.2557933 -0.056640454 0.09154828 0.021549435 0.0336224 -0.11036885
0.09181537 0.07728677 -0.018489221 0.08004913 -0.1966067 -0.08101952 0.056031067 -0.055551667
0.039579276 0.035074264 0.089911565 0.044542607 0.05574432 0.086532794 -0.03222157 -0.06739468
0.03252869 -0.017705552 0.06323142 -0.008966172 -0.076177396 0.05719325 -0.11851324 0.06733768
0.14786847 0.15310803 0.06727995 -0.12537079 0.03547651 -0.11453329 -0.07742188 0.040112454
-0.02346056 -0.20721431 -0.028045667 -0.010488611 -0.011484247 -0.1020636 0.10930076 0.093714505
0.035071876 -0.062068693 0.15606952 -0.043238223 -0.0022112196 0.0149627635 0.1538407 0.101074606
0.012381408 -0.046025503 0.031794593 0.05866193 -0.16928877 0.06270493 -0.13421676 -0.030528883
0.0780846 0.15793431 -0.063045025 -0.0133169 -0.07639656 0.05533933 -0.072721176 0.08113857
00000000: 7b4d bfbd c3b5 70bc a35d 1a3d 6c54 6cbd
00000010: f895 bdb9 1f3f 823b c2e8 03be b11b 823d
00000020: 6a74 1bbe 6004 b3bc f574 8d3d 6e4a f1bd
00000030: 3cbb 093d 419d 643d 056c e6bc 2e3e 993d
00000040: c731 0dbe c922 f73d be58 503d 2786 b4bd
00000050: 693c 3f3e 5c11 11bd 0089 423c 88d6 39bd
00000060: cb76 c1bd d7c9 233c 7690 2d3d 008e e0bd
00000070: 2f44 ac3d fefa 063d ae35 9fbc 2eb2 d13d
00000080: 3426 8abd f89a 103d 6c64 533e 6ff1 74bd
00000090: 496b b6bc 208a 90bd da0d 7d3d d15c e7bd
000000a0: de8e d3bd 382c 293e 4f31 30bc 052c 41bd
000000b0: 9973 a43c e280 cd3d 217c acbc cf87 803d
000000c0: 847a 3d3e f21c 963c 20cd 753d ab0f eabd
000000d0: c92f 8ebd 6c9e 91bd 6e15 803d 1d83 cc3c
000000e0: 7a3e 1b3e 5df0 ad3d a996 1c3d 1eab 9a3d
000000f0: 5299 eb3d 97c3 1a3e 0cda b8bd bb19 a3bd
00000100: 9377 ba3d 22e4 353e da5c 3b3e 2e29 383d
00000110: b180 a73c c255 7abc 249a 063e 008f 61bd
00000120: 976c 38bd c951 35be acb1 aa3d 0dec 24be
00000130: f936 c3bd d89e 3c3e 6c93 203e 73e8 c5bd
00000140: 58ef e53d 7236 8fbb ecd3 943c 9edc 813e
00000150: 463c 293e 94b9 3ebd 1965 11be 82d7 9ebd
00000160: 1d25 853d ffb5 043d a6d4 183c 474a 54bd
00000170: bd5b 193d f03c 33be ae5b 16bd 4e0e 50be
00000180: b266 7abd 2bbe 9a3d 36bd 34bd 1013 9ebd
00000190: 91e1 503e ed92 bf3d d0c4 bdbd 0d15 0bbe
000001a0: f8a0 523d 08b0 f5bd 381c 803c 7e1c 18be
000001b0: 0803 99bd b9a7 d13d f3bd a43d 7a82 cabd
000001c0: d00c 82bd d225 fc3d 7a34 b63b 1c94 763d
000001d0: 9781 243e dcd6 a33d efdb b4bd db67 f03d
000001e0: 9c36 56bc ecc8 693d d45b 02be 310f 5b3d
000001f0: be61 9ebd 8ea0 d73b 9266 fdbb 8054 3ebd
00000200: 0f97 803d 8e48 883d 29fc 87bd a560 d2bd
00000210: e74d a1bd ae48 143e a565 d93d 4270 30bc
00000220: 1e1b 29bc 72f3 45bd 664d fe3d 68e7 26bd
00000230: ceb7 57bc 5c58 033e 07e7 a83d 8da8 b9bd
00000240: eb21 64bd 0249 05be 4c46 20bd a2ee 8a3c
00000250: ba14 643b 40a1 73bd c73d 893b 80f0 b83d
00000260: c5f6 4c3e 7178 5f3d 3ab8 dfbc b961 2d3d
00000270: dfa2 103d 3df6 763d 1a02 d83c d067 8c3d
00000280: d7e5 e0bc 2f37 79bd caf6 813d 83bf 9cbd
00000290: 9b16 b23d 34ae cb3b 929c 3ebd 6260 09bd
000002a0: e810 f1bd 2e1d 813e 9f6c 0b3e a8a7 7dbd
000002b0: ab03 69bd 1c0a 41be cecb a83c 0be0 01bd
000002c0: c5b7 34bd 6de7 32bb b2e9 c03d 5a8d 87bb
000002d0: 3fe6 c83d e5c9 eebc fc0d fcbc c01a 743c
000002e0: 2533 193c 4633 b7bd 57f7 823e d2ff 67bd
000002f0: aa7d bb3d 7188 b03c a4b7 093d 1009 e2bd
00000300: b209 bc3d 8748 9e3d b576 97bc ccf0 a33d
00000310: 4453 49be 90ed a5bd d580 653d 258a 63bd
00000320: e11d 223d 08aa 0f3d 8e23 b83d 4f72 363d
00000330: 2854 643d 1b38 b13d c4fa 03bd 3906 8abd
00000340: ce3c 053d 3c0b 91bc 7a7f 813d dae6 12bc
00000350: e502 9cbd 7843 6a3d 12b7 f2bd 56e8 893d
00000360: d56a 173e 5ac8 1c3e 12ca 893d 3361 00be
00000370: d14f 113d 6e90 eabd 5d8f 9ebd f54c 243d
00000380: 5c30 c0bc fd2f 54be 07c0 e5bc 6cd8 2bbc
00000390: 6c28 3cbc b906 d1bd 14d9 df3d 64ed bf3d
000003a0: 87a7 0f3d be3b 7ebd b0d0 1f3e 901a 31bd
000003b0: 1cea 10bb 6126 753c 6b88 1d3e 3400 cf3d
000003c0: 64db 4a3c 3d85 3cbd 0c3b 023d 7e47 703d
000003d0: 095a 2dbe 716b 803d 1e70 09be b517 fabc
000003e0: d2ea 9f3d 88b9 213e c01d 81bd 202f 5abc
000003f0: cd75 9cbd 7eab 623d d7ee 94bd fb2b a63d

bias f4 [128]
-0.03396797 -0.019080518 -0.24198255 -0.08034221 0.06256686 -0.08823841 -0.11235082 -0.1045487
-0.1303414 -0.024311421 -0.251828 -0.1396489 -0.051613543 -0.11508933 -0.14596051 -0.17071511
-0.2564211 0.02734545 -0.12712434 -0.012112537 -0.16969581 -0.108545005 -0.16127372 -0.00018553375
0.13145527 0.009894791 -0.21915755 -0.012286315 -0.17177486 0.075434186 -0.01780377 -0.12568577
-0.113135375 -0.18415132 -0.21812347 0.09518235 -0.012412355 -0.04501747 0.08074876 -0.100366324
-0.017654506 -0.057620626 -0.118159115 -0.26874566 -0.11179273 -0.039340943 -0.09553277 -0.031099908
-0.09350155 -0.11000638 0.018648349 -0.20710497 -0.09595374 -0.021437787 -0.12198707 -0.03376103
-0.03234784 -0.09000698 -0.23468688 -0.09716243 -0.108507425 -0.22869402 0.019377528 -0.1058658
0.0013423228 -0.05398648 -0.07986746 -0.06372915 0.007195472 -0.1416814 -0.029083453 0.006900678
-0.08470711 -0.12085227 -0.02307482 -0.12476561 -0.1430536 -0.090070054 -0.15445733 -0.10108247
0.093089625 0.0656049 -0.07968434 -0.08869755 -0.100901365 -0.18085466 -0.11773098 -0.054925382
-0.04447344 -0.11919212 -0.13111664 -0.13304645 -0.08781319 -0.09229386 -0.011942258 -0.21735142
-0.10214663 -0.1120506 -0.16668564 -0.08064066 -0.021539314 -0.31913364 -0.11578159 -0.054703433
-0.0106136985 -0.13826044 -0.18045107 -0.031402666 -0.027822739 0.046991333 0.05103677 -0.087497965
-0.1435805 -0.05772692 -0.1450305 -0.14285791 0.0063748527 -0.020214537 -0.021883687 -0.14836374
-0.043610994 -0.1885162 -0.14997548 -0.22320376 -0.010305851 -0.09951545 0.018440126 -0.08963636
00000000: 0022 0bbd bf4e 9cbc 46ca 77be 758a a4bd
00000010: 0e23 803d 57b6 b4bd 3018 e6bd a11d d6bd
00000020: 3778 05be bf28 c7bc 9aef 80be 1f00 0fbe
00000030: b968 53bd f4b3 ebbd ac76 15be f1cf 2ebe
00000040: a049 83be 9103 e03c e22c 02be aa73 46bc
00000050: bdc4 2dbe d84c debd f024 25be d68b 42b9
00000060: 369c 063e c31d 223c d66a 60be 8a4c 49bc
00000070: c0e5 2fbe 3d7d 9a3d 36d9 91bc c5b3 00be
00000080: 85b3 e7bd 2a92 3cbe c25b 5fbe f7ee c23d
00000090: 315d 4bbc 3d64 38bd 9b5f a53d dc8c cdbd
000000a0: 2fa0 90bc 9b03 6cbd 68fd f1bd 0899 89be
000000b0: 96f3 e4bd f823 21bd afa6 c3bd 3cc5 febc
000000c0: be7d bfbd 064b e1bd 6cc4 983c 5313 54be
000000d0: 6583 c4bd 4c9e afbc 5bd4 f9bd 0149 0abd
000000e0: 2b7f 04bd 9455 b8bd c251 70be 19fd c6bd
000000f0: 2439 debd c42e 6abe 9fbd 9e3c 2bd0 d8bd
00000100: e1f0 af3a ed20 5dbd 8d91 a3bd 6e84 82bd
00000110: fec7 eb3b ee14 11be 6c40 eebc 151f e23b
00000120: ec7a adbd 6581 f7bd 6807 bdbc 1d85 ffbd
00000130: a57c 12be a676 b8bd 102a 1ebe 5304 cfbd
00000140: c6a5 be3d dd5b 863d 8b31 a3bd 10a7 b5bd
00000150: 60a5 cebd f731 39be f11c f1bd 70f9 60bd
00000160: c829 36bd 001b f4bd 7143 06be 543d 08be
00000170: 67d7 b3bd 9004 bdbd 76a9 43bc 5f91 5ebe
00000180: 4132 d1bd c97a e5bd a4af 2abe ee26 a5bd
00000190: 3773 b0bc 7c65 a3be e61e edbd b510 60bd
000001a0: 14e5 2dbc 2594 0dbe 2ac8 38be 15a0 00bd
000001b0: 83ec e3bc fc79 403d ef0b 513d 2232 b3bd
000001c0: c406 13be 1073 6cbd e082 14be 5849 12be
000001d0: 24e4 d03b f598 a5bc 6b45 b3bc aaec 17be
000001e0: 71a1 32bd 640a 41be 2c93 19be 878f 64be
000001f0: dfd9 28bc c2ce cbbd bf0f 973c 4593 b7bd

weight f4 [128, 128]
-0.11125253 0.013036724 0.040595494 -0.03530519 0.049385842 0.04125698 -0.10143245 0.059092265
-0.21465972 0.056473624 -0.1576628 0.12125233 0.027936518 -0.00066777616 0.03019288 0.06563218
-0.1029357 -0.22967988 0.024285043 0.08391818 -0.031620033 -0.1651359 0.09790265 -0.07699224
0.009893275 0.08083089 0.093607135 -0.092374064 0.15577142 -0.018911507 -0.084522225 0.055549156
-0.08841927 -0.03379659 0.041722275 -0.031048475 0.035355248 0.008294513 -0.0829008 -0.063861705
-0.07744366 -0.05260973 0.048027396 -0.01205613 -0.053318307 0.058614813 0.013700278 0.012550464
-0.0408497 0.051880203 -0.02805529 -0.036192775 0.141423 -0.08195904 -0.11041031 0.062354386
0.01733515 -0.00649335 -0.07272205 0.110787086 -0.2787991 -0.009231821 0.01927289 -0.1515598
-0.01048704 0.05340337 -0.03823734 0.054184753 0.043988697 -0.04487149 -0.032730788 -0.07739582
0.087117285 -0.07360357 0.071323946 -0.34142908 -0.15847026 -0.19381705 -0.02781676 0.08353009
-0.06990608 -0.09860531 -0.055911493 0.0031488312 -0.029488457 0.04880184 -0.090330765 0.0031872345
-0.09205359 0.017218081 0.011589841 0.16711959 0.087602206 0.08917633 0.017905297 -0.09161737
-0.04304513 0.05399147 0.12629335 0.009028026 -0.072203256 0.090551876 0.17286198 0.01774443
0.022663908 -0.26459926 0.055686165 -0.15521711 0.024378996 0.10443182 -0.036748916 -0.08335558
0.14561796 0.020165635 -0.017918479 0.03792681 0.030351877 0.017901141 -0.07641251 0.012765522
-0.08378137 -0.13807492 0.0764771 -0.081944056 0.12526852 0.09056327 0.08034124 0.14886743
0.100642286 -0.066190645 0.077958316 -0.09145219 -0.0084161265 0.030867545 -0.04924653 0.09188344
0.041320633 -0.020752091 0.02124158 -0.03671278 -0.048243564 0.087626725 0.13242993 -0.12825428
-0.032060716 0.044673257 -0.05731891 -0.07766058 0.036489554 -0.02491048 0.03048219 -0.029296797
-0.09827088 -0.13725011 0.12601879 -0.0155237885 0.011433458 -0.024473142 0.038082 -0.092434905
0.028652087 -0.025971152 0.068011835 0.086658314 -0.03693876 0.016959524 0.046229128 -0.008547348
0.10062672 -0.009895989 0.066056736 0.20381296 -0.09722117 -0.048653975 0.05761332 -0.048273522
0.024976816 0.10758606 -0.06731234 0.0038735103 -0.036762282 0.008760359 -0.08259533 -0.018411327
0.090500675 0.077169076 -0.015868448 0.029304188 -0.11513663 -0.053832565 -0.1036852 -0.038542733
0.004900269 -0.045875866 -0.11102452 0.068944186 -0.020416686 -0.08279446 -0.06083305 0.028081806
-0.036004674 -0.0044898787 0.07956797 0.02427313 -0.088216275 -0.012780463 -0.08673896 0.014665239
-0.117393 0.03048885 0.00986691 0.1327233 0.08675612 0.015873572 0.00526325 0.001389955
-0.12663485 0.1625067 -0.11497253 -0.009255331 -0.02263188 -0.0223003 -0.14443192 0.047572896
-0.049469072 0.060747027 -0.016102007 -0.034585837 0.039257605 0.0152012 0.034603816 -0.053445384
0.07714122 -0.004907769 -0.029208895 -0.10904412 0.08728532 0.043238677 -0.086420804 0.07288385
-0.004103896 0.0005769644 -0.049549714 -0.008696815 -0.036515314 -0.06798127 -0.06438773 0.10967503
0.024584062 0.059273776 0.21394563 0.022809166 0.017070865 0.06761498 -0.0625113 0.07896353
00000000: 5ed8 e3bd fc97 553c 7647 263d 2d9c 10bd
00000010: cf48 4a3d 14fd 283d d1bb cfbd bb0a 723d
00000020: c2cf 5bbe e350 673d 5b72 21be 2453 f83d
00000030: 20db e43c b30d 2fba 0f57 f73c 2a6a 863d
00000040: f4cf d2bd 3431 6bbe 6df1 c63c 4bdd ab3d
00000050: 0284 01bd 6319 29be 2f81 c83d 1cae 9dbd
00000060: 6717 223c aa8a a53d 19b5 bf3d 9d2e bdbd
00000070: 8b82 1f3e 4eec 9abc fd19 adbd 8387 633d
00000080: 2a15 b5bd 4b6e 0abd fae4 2a3d 5f59 febc
00000090: aad0 103d b6e5 073c e5c7 a9bd edc9 82bd
000000a0: c89a 9ebd 4d7d 57bd 60b8 443d 1387 45bc
000000b0: 4c64 5abd 1616 703d 2177 603c 76a0 4d3c
000000c0: 0452 27bd 5680 543d 35d4 e5bc e03e 14bd
000000d0: 31d1 103e 24da a7bd cd1e e2bd 5067 7f3d
000000e0: 7202 8e3c 2bc6 d4bb 4cef 94bd 57e4 e23d
000000f0: c1be 8ebe 1041 17bc 2ee2 9d3c 7e32 1bbe
00000100: d5d1 2bbc 7ebd 5a3d c29e 1cbd d5f0 5d3d
00000110: 7e2d 343d 2bcb 37bd b810 06bd b381 9ebd
00000120: 8c6a b23d 78bd 96bd 4a12 923d cbcf aebe
00000130: 0746 22be fa77 46be f9df e3bc d311 ab3d
00000140: eb2a 8fbd 95f1 c9bd 7303 65bd 9f5c 4e3b
00000150: c791 f1bc 70e4 473d 56ff b8bd ece0 503b
00000160: 9886 bcbd ef0c 8d3c 51e3 3d3c 6621 2b3e
00000170: c968 b33d 14a2 b63d 21ae 923c e3a1 bbbd
00000180: 1750 30bd 2926 5d3d 0b53 013e 49ea 133c
00000190: 4ddf 93bd 4373 b93d bb02 313e c45c 913c
000001a0: a9a9 b93c 8e79 87be 2d17 643d 3cf1 1ebe
000001b0: 76b6 c73c 5ae0 d53d 0886 16bd 55b6 aabd
000001c0: e01c 153e 6732 a53c c6c9 92bc 2559 1b3d
000001d0: 80a4 f83c 6aa5 923c 297e 9cbd 7b26 513c
000001e0: 9195 abbd 8363 0dbe 07a0 9c3d 49d2 a7bd
000001f0: 6446 003e 3c79 b93d f389 a43d b470 183e
00000200: 8b1d ce3d f68e 87bd 9ca8 9f3d 494b bbbd
00000210: cbe3 09bc efdd fc3c bbb6 49bd 632d bc3d
00000220: d33f 293d 4a00 aabc d202 ae3c 2460 16bd
00000230: 0b9b 45bd a475 b33d b69b 073e 1755 03be
00000240: 1952 03bd 4efb 363d 3cc7 6abd 830c 9fbd
00000250: 1276 153d 1011 ccbc c9b5 f93c d6ff efbc
00000260: 3e42 c9bd 4b8b 0cbe 120b 013e 7d57 7ebc
00000270: 6653 3b3c e67b c8bc dffb 1b3d 834e bdbd
00000280: c8b7 ea3c 74c1 d4bc ca49 8b3d ea79 b13d
00000290: 194d 17bd b3ee 8a3c c15a 3d3d 2d0a 0cbc
000002a0: 6215 ce3d c922 22bc c148 873d 58b4 503e
000002b0: e51b c7bd 6449 47bd f2fb 6b3d 75ba 45bd
000002c0: 2e9c cc3c 1556 dc3d 0ddb 89bd b8da 7d3b
000002d0: 0c94 16bd 9c87 0f3c be27 a9bd 5ad3 96bc
000002e0: 6b58 b93d d20a 9e3d 8cfe 81bc 560f f03c
000002f0: c1cc ebbd 897f 5cbd e858 d4bd fcde 1dbd
00000300: 7092 a03b 55e8 3bbd d360 e3bd 9c32 8d3d
00000310: e540 a7bc 2490 a9bd 142c 79bd d10b e63c
00000320: a379 13bd d51f 93bb 88f4 a23d 71d8 c63c
00000330: bcaa b4bd 2665 51bc 32a4 b1bd 7846 703c
00000340: be6b f0bd c1c3 f93c d2a8 213c 9ee8 073e
00000350: 31ad b13d 4b09 823c 5777 ac3b 272f b63a
00000360: 91ac 01be 2868 263e b876 ebbd aca3 17bc
00000370: 7e66 b9bc 1eaf b6bc f6e5 13be ccdb 423d
00000380: 15a0 4abd e0d1 783d 5be8 83bc e1a9 0dbd
00000390: 95cc 203d 740e 793c bbbc 0d3d 8ce9 5abd
000003a0: 37fc 9d3d 5ad1 a0bb 7e47 efbc 8652 dfbd
000003b0: a5c2 b23d 0a1b 313d 64fd b0bd 2144 953d
000003c0: fa79 86bb 6d3f 173a a4f4 4abd 167d 0ebc
000003d0: 1591 15bd c439 8bbd b7dd 83bd 4d9d e03d
000003e0: 8464 c93c 0fc9 723d 9014 5b3e 4ada ba3c
000003f0: 33d8 8b3c b979 8a3d ed05 80bd a2b7 a13d

bias f4 [128]
-0.07232076 -0.04786912 -0.10396385 -0.07982367 -0.062106676 -0.13704978 0.024705224 -0.08498563
-0.073278286 0.011095575 -0.004050169 0.05853004 0.109716155 -0.011042996 -0.14186421 -0.097418115
-0.16147979 0.0154073825 0.00825412 -0.052366644 -0.05799799 -0.1131123 -0.06779507 -0.09099596
-0.07113162 0.06913512 -0.04737192 0.021624463 -0.09119391 0.03644358 0.03489946 0.051931124
-0.07640011 -0.037406374 -0.010239847 -0.16078028 -0.12019377 0.035242032 -0.06463064 0.059311993
-0.030320233 -0.061023682 0.012519831 -0.07907107 -0.12053713 -0.12210262 -0.0772682 -0.14099164
0.09970532 -0.017320437 0.056035187 -0.09377131 -0.0075972583 -0.039357826 -0.021310832 0.03488345
-0.071404144 -0.10076615 -0.04381832 -0.056197066 -0.044745594 -0.04162031 0.087885395 -0.20493793
-0.1049905 -0.114649884 -0.022008685 -0.0021281089 -0.060380243 -0.04293328 -0.0847789 -0.013309292
-0.13048248 -0.026484143 -0.24205299 -0.056413755 -0.017896663 0.116070606 -0.10639042 0.018189486
-0.029044863 0.08838181 -0.015872885 0.046482667 -0.016578779 0.048262745 0.023987371 -0.0036312782
0.030530132 -0.25280797 -0.11963127 0.034269642 -0.10536574 -0.06720017 0.015232113 -0.008606562
0.05693781 0.028879406 0.04085672 -0.13087527 0.093254976 -0.13858977 0.018431932 -0.15456904
0.05891984 -0.07284967 -0.1310957 -0.0033609034 -0.10594441 0.011895395 -0.09174833 -0.02854908
-0.012219454 -0.03532107 -0.22331063 -0.010459857 0.041504875 -0.049417876 0.07880018 -0.058826197
0.07345902 -0.14551122 0.048660208 -0.025683025 -0.055509828 0.016615318 -0.055647153 -0.039454978
00000000: e81c 94bd 6912 44bd 00eb d4bd 987a a3bd
00000010: 9263 7ebd c756 0cbe 9c62 ca3c f20c aebd
00000020: ed12 96bd 37ca 353c 48b7 84bb 32bd 6f3d
00000030: ddb2 e03d afed 34bc da44 11be 2683 c7bd
00000040: f55a 25be 3f6f 7c3c 4a3c 073c 687e 56bd
00000050: 4d8f 6dbd 6ca7 e7bd 24d8 8abd 175c babd
00000060: 74ad 91bd b796 8d3d 0f09 42bd c925 b13c
00000070: dfc3 babd dd45 153d bcf2 0e3d bbb5 543d
00000080: a977 9cbd 6d37 19bd 08c5 27bc 96a3 24be
00000090: 2728 f6bd f359 103d 125d 84bd 22f1 723d
000000a0: 2362 f8bc f8f3 79bd fa1f 4d3c 03f0 a1bd
000000b0: 2cdc f6bd f010 fabd ca3e 9ebd 1d60 10be
000000c0: 4e32 cc3d 97e3 8dbc 2785 653d 2c0b c0bd
000000d0: 6cf2 f8bb ac35 21bd 0e94 aebc f3e1 0e3d
000000e0: 563c 92bd 7c5e cebd d77a 33bd e52e 66bd
000000f0: 2847 37bd 0f7a 2abd 42fd b33d 40db 51be
00000100: 4205 d7bd 8fcd eabd 8f4b b4bc be77 0bbb
00000110: 4651 77bd cfda 2fbd 8fa0 adbd 370f 5abc
00000120: 339d 05be 46f5 d8bc bddc 77be 1c12 67bd
00000130: 069c 92bc 6db6 ed3d 38e3 d9bd 1e02 953c
00000140: 7eef edbc 8601 b53d da07 82bc 9c64 3e3d
00000150: 38d0 87bc 28af 453d 2a81 c43c bdfa 6dbb
00000160: 541a fa3c 0c70 81be 3d01 f5bd 535e 0c3d
00000170: fec9 d7bd 3ea0 89bd 1d90 793c 8a02 0dbc
00000180: 9f37 693d 8194 ec3c 6059 273d 2b04 06be
00000190: 77fc be3d 7aea 0dbe 90fe 963c 5947 1ebe
000001a0: ee55 713d 3532 95bd f43d 06be 9a42 5cbb
000001b0: 62f9 d8bd e7e4 423c 8ce6 bbbd c3df e9bc
000001c0: 1b34 48bc d4ac 10bd 8bab 64be d25f 2bbc
000001d0: 0401 2a3d 666a 4abd fd61 a13d bdf3 70bd
000001e0: af71 963d e500 15be ed4f 473d 3565 d2bc
000001f0: 465e 63bd d91c 883c 45ee 63bd 8b9b 21bd

weight f4 [19, 128]
0.0012677095 0.012305472 0.05749614 -0.0028268963 -0.012133834 0.029432248 -0.024215126 -0.06489961
-0.02191402 -0.015037189 -0.019505832 -0.019129572 0.0027013484 -0.015507217 -0.036321633 0.019452326
-0.039125144 -0.0001224198 -0.019960543 0.0068063587 0.010533108 -0.04189174 -0.064065196 0.0137393465
0.008725227 -0.0020405187 0.025105773 -0.005358493 -0.0059559825 -0.026190246 -0.0016342356 0.014411916
0.036458187 0.017407417 -0.018354775 0.039454892 0.005112548 0.01674043 -0.00034101243 -0.0038985007
0.0021153432 -0.0101574315 -0.010549639 0.03038358 0.009146041 -0.048473805 0.008173466 0.009269158
0.0011275789 0.0067833024 7.190595e-05 0.027619643 -0.019311137 -0.008921149 -0.015764419 -0.014436042
0.00019312541 -0.01717496 0.008715277 0.018178787 0.03523428 -0.0016434198 -0.005118715 -0.017736163
0.027067622 -0.013624332 0.01068963 0.0012563133 -0.008915664 -0.031846233 0.03308679 -0.02402297
0.013627879 -0.0006843042 -0.013408267 0.06436077 0.004642599 0.003852695 -0.017112114 -0.003925109
0.0012001304 -0.021186681 0.001880296 0.06925433 0.01921979 0.002753512 0.0022370836 -0.00895534
-0.052369248 0.017394658 0.0047980486 7.855371e-05 -0.00191723 0.052896667 -0.026959004 0.0012167874
0.025509737 0.0051154085 -0.018675424 -0.0024468529 -0.024421532 0.03860683 0.03770294 0.048114814
0.032685224 -0.014339357 -0.040383413 -0.008137722 -0.013649507 -0.009956161 0.026361346 -0.0051904656
-0.025940798 -0.007914032 -0.008193916 0.0044681504 0.015642742 -0.024192689 0.007584759 -0.0141558945
0.0018996808 -0.029356256 -0.0022172662 0.010652804 0.008005093 0.01593036 0.0104897 -0.019717656
0.013457993 0.012473227 0.006142986 -0.0028049634 0.029132452 -0.04437459 -0.020693133 0.019843688
-0.007993758 -0.017057281 -0.007433123 0.009032234 0.018329285 0.054170374 0.029576685 -0.0032174867
0.026754783 0.05610792 0.0846401 -0.0025754278 -0.00093848293 0.015524855 -0.017022582 -0.011807268
-0.0060248137 -0.003618358 -0.001894834 0.010922283 0.02426713 0.005559288 8.552881e-05 0.009932919
-0.026990494 0.015586099 -0.002657335 -0.042412706 0.010443196 0.028905516 0.009758547 0.020029986
0.0044333404 0.031637445 -0.0019416494 -0.0037156413 -0.03832301 -0.011608089 0.0034829997 -0.042951897
0.009744334 0.011271251 -0.0045335097 -0.07013171 -0.016741952 -0.021261264 -0.0088309795 -0.00590724
-0.027004454 0.05866443 0.04384231 -0.005419396 0.004116783 -0.02473938 -0.012812605 -0.0065785674
0.014264193 -0.007848275 0.04081221 -0.006285372 0.04007612 -0.012178114 -0.029437458 0.006422985
0.003195461 -0.0034590794 0.0042471667 -0.07784131 -0.021155532 -0.061728816 0.0020389687 -0.012666345
-0.029071204 0.00713728 0.022818236 0.017433753 -0.01731893 0.0009431141 0.0019519097 -0.0026934557
-0.013444175 0.012365606 -0.0074527794 0.0013532517 -0.024424 -0.04146993 -0.015986545 -0.0021962165
0.0063554044 -0.0027418863 -0.00045243168 -0.026046235 -0.008702222 -0.033005785 -0.016138423 -0.04443831
-0.01492644 0.01041486 -0.0019150253 0.0054156776 0.008392137 0.0018962794 -0.00487081 0.009686771
-8.8773515e-05 0.0055930284 -0.020637523 0.0025506844 -0.004366774 0.0069621555 -0.008928977 -0.0105825
0.0074810013 -0.016315607 -0.010647295 -0.0087344395 -0.008243713 -0.031214735 0.009422277 -0.003663643
00000000: 4629 a63a e49c 493c 1381 6b3d 7343 39bb
00000010: fdcc 46bc e61b f13c cd5e c6bc 16ea 84bd
00000020: 0885 b3bc 8b5e 76bc b2ca 9fbc 9fb5 9cbc
00000030: 1b09 313b fb11 7ebc fec5 14bd 7c5a 9f3c
00000040: b041 20bd d15d 00b9 4b84 a3bc e007 df3b
00000050: 0f93 2c3c ac96 2bbd 9d34 83bd ff1a 613c
00000060: 41f4 0e3c 39ba 05bb 9faa cd3c 4c96 afbb
00000070: 672a c3bb ed8c d6bc d933 d6ba f51f 6c3c
00000080: 2e55 153d 009a 8e3c c15c 96bc 749b 213d
00000090: 2987 a73b 3a23 893c eac9 b2b9 fd7d 7fbb
000000a0: 92a1 0a3b 5b6b 26bc 65d8 2cbc fce6 f83c
000000b0: 47d9 153c 788c 46bd 00ea 053c abdd 173c
000000c0: 45cb 933a 7746 de3b 37cc 9638 9742 e23c
000000d0: 6432 9ebc 032a 12bc 6224 81bc 2685 6cbc
000000e0: b581 4a39 80b2 8cbc 85ca 0e3c aeeb 943c
000000f0: d251 103d 0568 d7ba e5ba a7bb 6e4b 91bc
00000100: ebbc dd3c 9738 5fbc 8f23 2f3c e1aa a43a
00000110: 0113 12bc 3271 02bd 0486 073d d2cb c4bc
00000120: 7847 5f3c e162 33ba 59ae 5bbc 94cf 833d
00000130: f120 983b 7f7d 7c3b b42e 8cbc 339e 80bb
00000140: b24d 9d3a b18f adbc 4474 f63a 37d5 8d3d
00000150: d272 9d3c 4474 343b 099c 123b 6bb9 12bc
00000160: 2381 56bd 3e7f 8e3c f338 9d3b 34bd a438
00000170: 904b fbba 2daa 583d 21d9 dcbc 9c7c 9f3a
00000180: ccf9 d03c 289f a73b 34fd 98bc 615b 20bb
00000190: aa0f c8bc 3222 1e3d 666e 1a3d 0a14 453d
000001a0: f1e0 053d 9fef 6abc 1469 25bd 1454 05bc
000001b0: 2fa2 5fbc 2a1f 23bc c0f3 d73c c814 aabb
000001c0: cc81 d4bc dba9 01bc c63f 06bc 9069 923b
000001d0: 3525 803c bf2f c6bc 9289 f83b 20ee 67bc
000001e0: b6fe f83a 887c f0bc 8e4f 11bb 1989 2e3c
000001f0: cb27 033c 6380 823c fedc 2b3c ec86 a1bc
00000200: ea7e 5c3c 825c 4c3c 1a4b c93b 7ad3 37bb
00000210: 2ea7 ee3c 21c2 35bd a584 a9bc 3b8f a23c
00000220: 40f8 02bc b6bb 8bbc 8e91 f3bb effb 133c
00000230: 4c27 963c c1e1 5d3d ce4a f23c 78dc 52bb
00000240: d92c db3c 6bd1 653d ca57 ad3d 82c8 28bb
00000250: 8604 76ba f65b 7e3c f172 8bbc 4573 41bc
00000260: cd6b c5bb f921 6dbb 145c f8ba 60f3 323c
00000270: dccb c63c b02a b63b ee5d b338 afbd 223c
00000280: 2b1b ddbc d65c 7f3c af26 2ebb f2b8 2dbd
00000290: f019 2b3c 43cb ec3c 50e2 1f3c ed15 a43c
000002a0: 8e45 913b 4496 013d f17e feba 1e82 73bb
000002b0: 97f8 1cbd db2f 3ebc 0a43 643b 54ee 2fbd
000002c0: b3a6 1f3c 0eab 383c d68d 94bb 37a1 8fbd
000002d0: 6b26 89bc 1a2c aebc d0af 10bc 8591 c1bb
000002e0: 7238 ddbc 1d4a 703d fe93 333d 3095 b1bb
000002f0: 14e6 863b 3eaa cabc f6eb 51bc 0691 d7bb
00000300: 5db4 693c 0d96 00bc b42a 273d 86f5 cdbb
00000310: dc26 243d b686 47bc d326 f1bc e777 d23b
00000320: f06a 513b b9b1 62bb d12b 8b3b 446b 9fbd
00000330: 5e4e adbc 5bd7 7cbd 38a0 053b 8086 4fbc
00000340: bc26 eebc d8df e93b 4fed ba3c 3bd1 8e3c
00000350: 6ee0 8dbc 513b 773a 39d7 ff3a b084 30bb
00000360: f544 5cbc 1c99 4a3c 7236 f4bb 985f b13a
00000370: d714 c8bc 60dc 29bd 37f6 82bc 66ee 0fbb
00000380: ff40 d03b 38b1 33bb 5a34 edb9 ea5e d5bc
00000390: c493 0ebc 1331 07bd ba34 84bc f204 36bd
000003a0: 078e 74bc 17a3 2a3c 9601 fbba ff75 b13b
000003b0: 2c7f 093c 948c f83a 519b 9fbb 43b5 1e3c
000003c0: eb2b bab8 b945 b73b 0610 a9bc 6229 273b
000003d0: 2817 8fbb cb22 e43b d84a 12bc 3962 2dbc
000003e0: 3023 f53b 4fa8 85bc fe71 2ebc e51a 0fbc
000003f0: a310 07bc 0bb6 ffbc e55f 1a3c bb19 70bb

bias f4 [19]
-0.01981269 0.03607431 -0.07681118 0.11633508 -0.081495956 -0.023080528 0.011155586 -0.06289661
-0.08503358 -0.0360211 0.034797456 0.12742096 0.13478228 0.049915344 0.022601388 -0.09458859
-0.14741531 0.039612774 -0.034954045
00000000: 394e a2bc a8c2 133d 2e4f 9dbd 1641 ee3d
00000010: 5ae7 a6bd 6013 bdbc ebc5 363c f0cf 80bd
00000020: 1626 aebd dc8a 13bd c787 0e3d a47a 023e
00000030: 5e04 0a3e 0874 4c3d 8c26 b93c aab7 c1bd
00000040: 0af4 16be 0141 223d f92b 0fbd
